…
> Loading pose model in model3D_aug_-75_05.mat
> Loading pose model in model3D_aug_-75_06.mat
> Loading pose model in model3D_aug_-75_07.mat
> Loading pose model in model3D_aug_-75_08.mat
> Loading pose model in model3D_aug_-75_09.mat
> Loading pose model in model3D_aug_-75_10.mat
__________________________________________________________________________________________________
Layer (type)                    Output Shape         Param #     Connected to                     
==================================================================================================
input_1 (InputLayer)            (None, 3, 224, 224)  0                                            
__________________________________________________________________________________________________
block1_conv1 (Conv2D)           (None, 64, 224, 224) 1792        input_1[0][0]                    
__________________________________________________________________________________________________
block1_conv2 (Conv2D)           (None, 64, 224, 224) 36928       block1_conv1[0][0]               
__________________________________________________________________________________________________
block1_pool (MaxPooling2D)      (None, 64, 112, 112) 0           block1_conv2[0][0]               
__________________________________________________________________________________________________
block2_conv1 (Conv2D)           (None, 128, 112, 112 73856       block1_pool[0][0]                
__________________________________________________________________________________________________
block2_conv2 (Conv2D)           (None, 128, 112, 112 147584      block2_conv1[0][0]               
__________________________________________________________________________________________________
block2_pool (MaxPooling2D)      (None, 128, 56, 56)  0           block2_conv2[0][0]               
__________________________________________________________________________________________________
block3_conv1 (Conv2D)           (None, 256, 56, 56)  295168      block2_pool[0][0]                
__________________________________________________________________________________________________
block3_conv2 (Conv2D)           (None, 256, 56, 56)  590080      block3_conv1[0][0]               
__________________________________________________________________________________________________
block3_conv3 (Conv2D)           (None, 256, 56, 56)  590080      block3_conv2[0][0]               
__________________________________________________________________________________________________
block3_pool (MaxPooling2D)      (None, 256, 28, 28)  0           block3_conv3[0][0]               
__________________________________________________________________________________________________
block4_conv1 (Conv2D)           (None, 512, 28, 28)  1180160     block3_pool[0][0]                
__________________________________________________________________________________________________
block4_conv2 (Conv2D)           (None, 512, 28, 28)  2359808     block4_conv1[0][0]               
__________________________________________________________________________________________________
block4_conv3 (Conv2D)           (None, 512, 28, 28)  2359808     block4_conv2[0][0]               
__________________________________________________________________________________________________
block4_pool (MaxPooling2D)      (None, 512, 14, 14)  0           block4_conv3[0][0]               
__________________________________________________________________________________________________
block5_conv1 (Conv2D)           (None, 512, 14, 14)  2359808     block4_pool[0][0]                
__________________________________________________________________________________________________
block5_conv2 (Conv2D)           (None, 512, 14, 14)  2359808     block5_conv1[0][0]               
__________________________________________________________________________________________________
block5_conv3 (Conv2D)           (None, 512, 14, 14)  2359808     block5_conv2[0][0]               
__________________________________________________________________________________________________
block5_pool (MaxPooling2D)      (None, 512, 7, 7)    0           block5_conv3[0][0]               
__________________________________________________________________________________________________
flatten_1 (Flatten)             (None, 25088)        0           block5_pool[0][0]                
__________________________________________________________________________________________________
dense_1 (Dense)                 (None, 2048)         51382272    flatten_1[0][0]                  
__________________________________________________________________________________________________
dense_2 (Dense)                 (None, 2048)         51382272    flatten_1[0][0]                  
__________________________________________________________________________________________________
sampling (Lambda)               (None, 2048)         0           dense_1[0][0]                    
                                                                 dense_2[0][0]                    
__________________________________________________________________________________________________
decode_dense1 (Dense)           (None, 25088)        51405312    sampling[0][0]                   
__________________________________________________________________________________________________
decode_reshape (Reshape)        (None, 512, 7, 7)    0           decode_dense1[0][0]              
__________________________________________________________________________________________________
decode_upsample_1 (UpSampling2D (None, 512, 14, 14)  0           decode_reshape[0][0]             
__________________________________________________________________________________________________
decode_conv1 (Conv2D)           (None, 256, 14, 14)  1179904     decode_upsample_1[0][0]          
__________________________________________________________________________________________________
decode_upsample_2 (UpSampling2D (None, 256, 28, 28)  0           decode_conv1[0][0]               
__________________________________________________________________________________________________
decode_conv2 (Conv2D)           (None, 128, 28, 28)  295040      decode_upsample_2[0][0]          
__________________________________________________________________________________________________
decode_upsample_3 (UpSampling2D (None, 128, 56, 56)  0           decode_conv2[0][0]               
__________________________________________________________________________________________________
decode_conv3 (Conv2D)           (None, 64, 56, 56)   73792       decode_upsample_3[0][0]          
__________________________________________________________________________________________________
decode_upsample_4 (UpSampling2D (None, 64, 112, 112) 0           decode_conv3[0][0]               
__________________________________________________________________________________________________
decode_conv4 (Conv2D)           (None, 32, 112, 112) 18464       decode_upsample_4[0][0]          
__________________________________________________________________________________________________
decode_upsample_5 (UpSampling2D (None, 32, 224, 224) 0           decode_conv4[0][0]               
__________________________________________________________________________________________________
decode_conv5 (Conv2D)           (None, 3, 224, 224)  867         decode_upsample_5[0][0]          
==================================================================================================
Total params: 170,452,611
Trainable params: 170,452,611
Non-trainable params: 0
__________________________________________________________________________________________________
> [FaceAugDataLayer] Starting pre-fetching processes id: 0
> [FaceAugDataLayer] BatchLoader_train0  initialized with 2329348 images
…
